Model: "model_1"
_________________________________________________________________
Layer (type)                 Output Shape              Param #   
=================================================================
input_1 (InputLayer)         (None, 416, 416, 3)       0         
_________________________________________________________________
block1_conv1 (Conv2D)        (None, 416, 416, 64)      1792      
_________________________________________________________________
block1_conv2 (Conv2D)        (None, 416, 416, 64)      36928     
_________________________________________________________________
block1_pool (MaxPooling2D)   (None, 208, 208, 64)      0         
_________________________________________________________________
block2_conv1 (Conv2D)        (None, 208, 208, 128)     73856     
_________________________________________________________________
block2_conv2 (Conv2D)        (None, 208, 208, 128)     147584    
_________________________________________________________________
block2_pool (MaxPooling2D)   (None, 104, 104, 128)     0         
_________________________________________________________________
block3_conv1 (Conv2D)        (None, 104, 104, 256)     295168    
_________________________________________________________________
block3_conv2 (Conv2D)        (None, 104, 104, 256)     590080    
_________________________________________________________________
block3_pool (MaxPooling2D)   (None, 52, 52, 256)       0         
_________________________________________________________________
block4_conv1 (Conv2D)        (None, 52, 52, 512)       1180160   
_________________________________________________________________
block4_conv2 (Conv2D)        (None, 52, 52, 512)       2359808   
_________________________________________________________________
block4_pool (MaxPooling2D)   (None, 26, 26, 512)       0         
_________________________________________________________________
zero_padding2d_1 (ZeroPaddin (None, 28, 28, 512)       0         
_________________________________________________________________
conv2d_1 (Conv2D)            (None, 26, 26, 512)       2359808   
_________________________________________________________________
batch_normalization_1 (Batch (None, 26, 26, 512)       2048      
_________________________________________________________________
up_sampling2d_1 (UpSampling2 (None, 52, 52, 512)       0         
_________________________________________________________________
zero_padding2d_2 (ZeroPaddin (None, 54, 54, 512)       0         
_________________________________________________________________
conv2d_2 (Conv2D)            (None, 52, 52, 255)       1175295   
_________________________________________________________________
batch_normalization_2 (Batch (None, 52, 52, 255)       1020      
_________________________________________________________________
up_sampling2d_2 (UpSampling2 (None, 104, 104, 255)     0         
_________________________________________________________________
zero_padding2d_3 (ZeroPaddin (None, 106, 106, 255)     0         
_________________________________________________________________
conv2d_3 (Conv2D)            (None, 104, 104, 128)     293888    
_________________________________________________________________
batch_normalization_3 (Batch (None, 104, 104, 128)     512       
_________________________________________________________________
up_sampling2d_3 (UpSampling2 (None, 208, 208, 128)     0         
_________________________________________________________________
zero_padding2d_4 (ZeroPaddin (None, 210, 210, 128)     0         
_________________________________________________________________
conv2d_4 (Conv2D)            (None, 208, 208, 64)      73792     
_________________________________________________________________
batch_normalization_4 (Batch (None, 208, 208, 64)      256       
_________________________________________________________________
conv2d_5 (Conv2D)            (None, 208, 208, 12)      6924      
_________________________________________________________________
reshape_1 (Reshape)          (None, 43264, 12)         0         
_________________________________________________________________
softmax_1 (Softmax)          (None, 43264, 12)         0         
=================================================================
Total params: 8,598,919
Trainable params: 8,597,001
Non-trainable params: 1,918
_________________________________________________________________
Epoch 1/50
2020-04-16 21:58:57.456078: W tensorflow/core/framework/cpu_allocator_impl.cc:81] Allocation of 398721024 exceeds 10% of system memory.
2020-04-16 21:58:57.549260: W tensorflow/core/framework/cpu_allocator_impl.cc:81] Allocation of 398721024 exceeds 10% of system memory.
…
